…
["", "", "Coupon", "Market Value ($100)", "Maturity", "Face"]: header
["United States Treasury Note\/Bond", "1.2%", "22,120,821", "1,607,819", "5\/15\/27"]: data"
["Total Unites States", "", "5,192,000"]: total
["", "", "", "", "5,029,331"]: total


Please please categorize all below rows like above

['', '', 'Shares', 'Market Value •  ($000)']
  ['Common Stocks (99.5%)', '', '', '']
  ['Australia (5.3%)', '', '', '']
  ['', 'Commonwealth Bank of Australia', '259,114', '17,123']
  ['', 'CSL Ltd.', '73,176', '14,637']
  ['', 'National Australia Bank Ltd.', '492,549', '10,214']
visualize the following python policy network as an svg: PIDQNModel(
  (K): Linear(in_features=1, out_features=32, bias=True)
  (Q): Linear(in_features=4, out_features=32, bias=True)
  (V): Linear(in_features=1, out_features=8, bias=True)
  (dv_pool): Linear(in_features=8, out_features=1, bias=True)
  (Nq_to_obs): Linear(in_features=16, out_features=4, bias=True)
  (DQN): DQNModel(
    (layers): ModuleList(
      (0): Linear(in_features=4, out_features=128, bias=True)
      (1): Linear(in_features=128, out_features=128, bias=True)
      (2): Linear(in_features=128, out_features=2, bias=True)
    )
  )
)
If I wanted to write a Python function about replacing strings in a list with an empty value, based on whether or not the string contains the letter "A", what would I type?
Describe the Python package pmdarima. What does it do and when would you want to use it?
what does a tree surgeon do
Provide python code that can check if an array can be sorted in one swapping operation
…
- using matplotlib package and other frameworks that may be useful, Draw the tesla cybertruck. Explain the basic shapes and essence of the car, look for some references of the Cybertruck shape and design, make the output of the very car simple. Write down a plan first, be sure to keep track of where you’re placing shapes location, then output entire clean professional code in code compatible window.
I have two different pandas dataframes: dfA and dfB. They have the same dimensions but different column names. Without changing the column names, I want to sum these two arrays into df_sum.
i have a FAQ dataset in a csv file, as a question and answer column, how do I build a GPT-2 model from scratch for this? give me the code for the same
FaceDetector(
  (conv1): Conv2d(3, 32, kernel_size=(3, 3), stride=(1, 1), padding=(1, 1))
  (bn1): BatchNorm2d(32, eps=1e-05, momentum=0.1, affine=True, track_running_stats=True)
  (pool1): MaxPool2d(kernel_size=2, stride=2, padding=0, dilation=1, ceil_mode=False)
  (dropout1): Dropout(p=0.2, inplace=False)
  (conv2): Conv2d(32, 64, kernel_size=(3, 3), stride=(1, 1), padding=(1, 1))
  (bn2): BatchNorm2d(64, eps=1e-05, momentum=0.1, affine=True, track_running_stats=True)
  (pool2): MaxPool2d(kernel_size=2, stride=2, padding=0, dilation=1, ceil_mode=False)
  (dropout2): Dropout(p=0.2, inplace=False)
  (conv3): Conv2d(64, 128, kernel_size=(3, 3), stride=(1, 1), padding=(1, 1))
  (bn3): BatchNorm2d(128, eps=1e-05, momentum=0.1, affine=True, track_running_stats=True)
  (pool3): MaxPool2d(kernel_size=2, stride=2, padding=0, dilation=1, ceil_mode=False)
  (dropout3): Dropout(p=0.2, inplace=False)
  (fc1): Linear(in_features=204800, out_features=512, bias=True)
  (bn4): BatchNorm1d(512, eps=1e-05, momentum=0.1, affine=True, track_running_stats=True)
  (dropout4): Dropout(p=0.2, inplace=False)
  (fc2): Linear(in_features=512, out_features=20, bias=True)
)


RuntimeError: The size of tensor a (20) must match the size of tensor b (4) at non-singleton dimension 2
what are the skills of data curator in hr-tech company?
What is an efficient algorithm to calculate a linear fit. The target platform is a microcontroller and there will be no more than 64 data points.
I want to write an algorithm that takes a list of 100 random integers and sorts them into ascending order. Please write the steps needed in structured English. 
…
